Models/GruAE_Decoder.pt (torch, 5791 bytes, 4 tensors)

weight_ih_l0 f4 [39, 6]
0	0xbeb649be	-0.35603136
1	0x3f8e33a8	1.1109514
2	0x3ec88852	0.39166504
3	0xbf977fd4	-1.1835885
4	0xbd1f902d	-0.038955856
5	0xbf9e3388	-1.2359476
6	0xbdceac86	-0.100915
7	0xbd9d3115	-0.07675377
8	0xbf40ea5a	-0.7535759
9	0xbed6e7e4	-0.41973794
10	0xbee71aa7	-0.45137522
11	0x3e896978	0.2683828
12	0x3eefc854	0.46832526
13	0x3e91f056	0.28503674
14	0xbe6ac08d	-0.22925015
15	0x3ec9262d	0.39286938
16	0x3f6ad655	0.91733295
17	0x3ed95784	0.42449582
18	0xbda05e8d	-0.07830534
19	0x3f0f121a	0.55886996
20	0x3eb68606	0.35649127
21	0xbf7c7fd9	-0.9863258
22	0xbc1117a4	-0.008855734
23	0x3f75ce2c	0.9601772
24	0xbf3b3533	-0.7312805
25	0x3f34694a	0.7047316
26	0x3dc0d7e3	0.09416177
27	0x3e1a2dc5	0.15056522
28	0xbf5f1cae	-0.87153137
29	0xbf05d590	-0.52278996
30	0x3e496d56	0.19670615
31	0x3e854619	0.26030043
32	0xbf088d81	-0.5334092
33	0xbe02acf1	-0.12761284
34	0x3f4d5db7	0.8022112
35	0xbf0cd8fe	-0.55018604
36	0xbe4d7879	-0.20065488
37	0xbf3db756	-0.74107873
38	0xbf361232	-0.71121514
39	0x3f365228	0.7121911
40	0x3f12006f	0.5703191
41	0xbf857168	-1.0425234
42	0xbf054c7d	-0.52069837
43	0x3f208cb3	0.6271469
44	0x3e142507	0.1446725
45	0x3e0eb539	0.13936318
46	0xbeec4c66	-0.46152037
47	0xbe1c149c	-0.15242237
48	0xbe9a1e17	-0.30101082
49	0xbe9759a7	-0.29560587
50	0x3e8ed70e	0.2789845
51	0x3e9519b4	0.29121172
52	0xbefb186f	-0.4904208
53	0xbf3648ec	-0.7120502
54	0xbf6a9aef	-0.9164266
55	0x3cc637cd	0.02419653
56	0xbf52b043	-0.82300204
57	0xbf50f9f9	-0.8163143
58	0x3ef48952	0.47761017
59	0xbf9570d8	-1.1675062
60	0xbe8509f5	-0.2598416
61	0xbeb438b2	-0.35199505
62	0x3f454715	0.7706159
63	0x3e19a304	0.15003592
64	0x3e8c452a	0.27396518
65	0x3e8626e9	0.2620156
66	0xbe6153ab	-0.22004573
67	0xbe37d1d2	-0.17951134
68	0x3f7dabd0	0.9909029
69	0x3ef96b5f	0.4871473
70	0x3e04aeca	0.12957302
71	0xbe8f6642	-0.28007704
72	0x3ecc0056	0.39844006
73	0xbe4e4a4e	-0.20145532
74	0xbf1ae5c9	-0.60506874
75	0xbe8ce50a	-0.27518493
76	0xbddc9c01	-0.10771943
77	0x3d35e86e	0.044411115
78	0xbf2631d2	-0.6491977
79	0xbf075fbf	-0.5288047
80	0x3f605866	0.87634885
81	0x3e701693	0.23446111
82	0x3fb577f9	1.4177238
83	0x3f8b8faf	1.0903224
84	0xbe27f5cf	-0.16402362
85	0xbeae0852	-0.33990723
86	0x3f82d0c0	1.0219955
87	0x3f292b9b	0.6608216
88	0x3f82ac5d	1.0208851
89	0x3d4cc9e5	0.04999723
90	0xbfa59f44	-1.2939229
91	0x3e66962a	0.2251822
92	0x3fb3b39f	1.4039191
93	0xbe8dac70	-0.27670622
94	0xbda47d53	-0.08031716
95	0xbf682a78	-0.906898
96	0xbf38ba98	-0.7215972
97	0xbf212814	-0.6295178
98	0x3ed64b8b	0.4185451
99	0x3ec244db	0.37943158
100	0x3fa8f690	1.3200245
101	0x3e986450	0.29764032
102	0x3fa08a11	1.2542135
103	0xbe5d4ae9	-0.21610607
104	0x3e910a7c	0.2832831
105	0x3fbcde06	1.4755256
106	0x3f95e838	1.1711493
107	0x3f57098c	0.8399894
108	0xbf8f5acb	-1.1199583
109	0x3e602239	0.21888055
110	0x3ea74edb	0.3267735
111	0x3f201129	0.62526184
112	0xbe88add2	-0.26695114
113	0xbf19411b	-0.5986497
114	0xbea52f2b	-0.3226255
115	0xbeec6c52	-0.46176392
116	0xbf0dbaf1	-0.55363375
117	0xbd0cd62a	-0.03438393
118	0x3edde111	0.43335775
119	0xbf8b56d1	-1.0885869
120	0xbe084c2c	-0.13310307
121	0x3eff18b4	0.49823534
122	0x3f0a0444	0.5391276
123	0xbf2659db	-0.6498086
124	0xbf3484a6	-0.70514905
125	0x3ecbb63b	0.39787468
126	0xbf1eabb2	-0.61980736
127	0x3e79bfb9	0.24389543
128	0x3d9d2c51	0.07674468
129	0x3e19e48e	0.15028593
130	0xbee7bde6	-0.4526207
131	0x3dd118dd	0.102098204
132	0xbdc54c74	-0.09633723
133	0x3ea50a22	0.32234293
134	0xbec2a78d	-0.38018456
135	0xbeb9592a	-0.3620084
136	0x3d2cdf65	0.042205233
137	0x3e4ceac0	0.20011425
138	0xbdd4dfd2	-0.10394253
139	0xbe84fa42	-0.25972182
140	0xbe979a7b	-0.29610047
141	0x3e7b3826	0.24533138
142	0xbf6575e1	-0.89632994
143	0x3e30c982	0.17264369
144	0xbdd39486	-0.10331063
145	0xbe597a90	-0.2123816
146	0x3eb6b6b2	0.3568626
147	0x3f5197fe	0.81872547
148	0x3f20f571	0.62874514
149	0x3d2927f6	0.041297875
150	0x3f276880	0.6539383
151	0xbe92f7a9	-0.28704575
152	0xbf80ea60	-1.0071526
153	0xbf8db725	-1.1071516
154	0xbf2a469b	-0.66513985
155	0x3f8e6320	1.1124
156	0xbf35b9f9	-0.70986897
157	0x3de696fb	0.11259266
158	0x3f3f8111	0.74806315
159	0xbf1a7e8b	-0.6034934
160	0xbf2a68a3	-0.6656591
161	0xbf32aaf5	-0.6979211
162	0xbea6db58	-0.3258922
163	0xbf1b1fd8	-0.60595465
164	0xbf8d6236	-1.1045597
165	0xbeaf9a41	-0.34297374
166	0xbeac45b3	-0.33646926
167	0xbd4e438b	-0.050357383
168	0xbf35e893	-0.71058005
169	0xbe8841a2	-0.26612574
170	0xbd185cfe	-0.03719806
171	0xbe7d5b14	-0.24741775
172	0x3f1b09b9	0.6056171
173	0x3f0de6fa	0.5543057
174	0x3e36af6e	0.17840359
175	0x3f343169	0.70387894
176	0xbc4f3fe7	-0.012649513
177	0xbe1dfb2a	-0.15427843
178	0xbf16cc96	-0.58905923
179	0x3f6d1001	0.92602545
180	0x3e4ac77d	0.19802661
181	0xbf60e2f1	-0.87846285
182	0x3ed2c440	0.41165352
183	0xbdf347b9	-0.118789144
184	0xbed9b201	-0.4251862
185	0x3ea5f2cf	0.3241181
186	0x3f28051e	0.6563281
187	0x3e89324e	0.26796192
188	0x3d047bed	0.032344747
189	0xbf5f7b4f	-0.8729753
190	0x3efb503a	0.49084646
191	0xbde8c9a3	-0.11366584
192	0x3e93e7e3	0.28887853
193	0x3e9b1b23	0.3029414
194	0xbdc7a559	-0.097483344
195	0x3df9af42	0.12191631
196	0xbe3a9af8	-0.18223178
197	0x3ebeabe2	0.3724051
198	0x3eac31d6	0.33631772
199	0xbe7dcd89	-0.24785437
200	0xbe2fc3a1	-0.1716447
201	0x3eab71ba	0.33485204
202	0x3e9160fb	0.28394303
203	0x3d6a560e	0.057210974
204	0xbbc9484e	-0.0061426526
205	0xbe85f64b	-0.2616447
206	0xbdb95a1b	-0.090503894
207	0xbf1c7a31	-0.6112395
208	0x3d4997f6	0.049217187
209	0x3e0276c5	0.1274062
210	0x3e2bd70b	0.16781251
211	0xbe6a526f	-0.22883008
212	0xbd5a0357	-0.05322584
213	0x3b94490c	0.0045253094
214	0x3efe456e	0.49662346
215	0x3eac300a	0.336304
216	0x3e36eb62	0.17863229
217	0x3e138c65	0.14409025
218	0x3e626683	0.22109418
219	0xbcb2fe46	-0.021849763
220	0x3cd03287	0.025414718
221	0xbe2a66e9	-0.1664082
222	0xbe0dd448	-0.1385051
223	0x3d5811fd	0.05275153
224	0x3e223657	0.15841042
225	0xbe4bc248	-0.19898331
226	0xbdeabe16	-0.11462037
227	0xbbd66c3e	-0.006543665
228	0x3e01d5bc	0.1267919
229	0x3e9f4bca	0.3111251
230	0x3e914ddc	0.28379714
231	0x3d9e563d	0.077312924
232	0x3dbe1103	0.092805885
233	0xbe47367f	-0.19454382

weight_hh_l0 f4 [39, 13]
0	0x3ee76b8e	0.45199245
1	0xbe09260b	-0.13393418
2	0xbf075313	-0.52861136
3	0xbef5632b	-0.47927222
4	0xbf3b9fb1	-0.73290545
5	0x3f58f2e4	0.8474562
6	0x3dff0d2e	0.12453686
7	0xbf34804f	-0.70508283
8	0x3f03099c	0.5118654
9	0xbf8e492b	-1.1116079
10	0x3efa226c	0.48854387
11	0xbf3a7767	-0.72838444
12	0x3ed29497	0.4112899
13	0xbdde27ed	-0.10847459
14	0x3efdf69e	0.49602216
15	0x3eb88201	0.36036685
16	0xbd65feb1	-0.056151096
17	0x3f49fd2f	0.7890195
18	0xbeeed7c7	-0.46649
19	0x3e5054f4	0.20344907
20	0x3f22b484	0.63556695
21	0xbf7be056	-0.98389184
22	0x3ed48730	0.4150939
23	0xbf8283e2	-1.0196497
24	0x3ec3c809	0.38238552
25	0xbf4a7e95	-0.790994
26	0xbf327150	-0.6970415
27	0xbe7c0348	-0.24610627
28	0xbe8b2319	-0.27175215
29	0x3ea650e1	0.3248358
30	0xbeaf341c	-0.34219444
31	0x3f1d57d1	0.6146212
32	0x3de0e91f	0.10981964
33	0xbd047f65	-0.032348055
34	0x3e01814f	0.12646984
35	0x3e80f3cf	0.2518601
36	0x3ef6e731	0.4822326
37	0xbede56d4	-0.4342562
38	0x3f520ee3	0.82053965
39	0x3ec5c6a0	0.386281
40	0xbf0daa61	-0.553381
41	0x3c2c4989	0.010515579
42	0x3e5deed8	0.21673143
43	0x3eb83459	0.35977438
44	0x3eff2485	0.4983255
45	0x3e31ef8e	0.17376539
46	0x3d80f641	0.06296969
47	0x3d3df99f	0.046380635
48	0xbdea2673	-0.11433115
49	0xbe9ae53e	-0.30253023
50	0x3e5599af	0.20859407
51	0x3f8885a8	1.0665789
52	0x3f202613	0.62558097
53	0x3d066393	0.032809805
54	0x3e976a8d	0.2957348
55	0x3e8b4088	0.2719767
56	0x3c4460d4	0.011985976
57	0xbe87539e	-0.26430982
58	0x3c90da47	0.017682208
59	0x3ea2217e	0.31666178
60	0xbf1e51cc	-0.6184356
61	0xbe964192	-0.293469
62	0xbf70b0c6	-0.94019735
63	0x3eb654ca	0.35611564
64	0xbe7f0da9	-0.24907555
65	0xbe7589b1	-0.23978306
66	0x3e23967a	0.15975371
67	0xbe42acb6	-0.19011196
68	0xbea3c93d	-0.3198947
69	0xbdfb698a	-0.12275989
70	0x3f439750	0.7640276
71	0x3e0d4d8d	0.13799115
72	0x3e722436	0.23646626
73	0xbd2154bd	-0.039387453
74	0x3e90620b	0.281998
75	0x3d6a47a8	0.057197243
76	0x3f5ea0e8	0.86964273
77	0xbe1d769e	-0.1537728
78	0xbf394cee	-0.7238301
79	0x3e4fc017	0.2028812
80	0xbf0a6e5f	-0.5407466
81	0xbf929196	-1.1450679
82	0xbf11c984	-0.56948113
83	0xbee95db5	-0.45579305
84	0x3f117617	0.56820816
85	0xbd477f0c	-0.048705146
86	0x3ea1fe58	0.3163936
87	0xbf232e75	-0.6374276
88	0x3ee560b6	0.44800347
89	0xbe1840a9	-0.14868416
90	0x3db03b44	0.08605054
91	0x3eb97a72	0.3622623
92	0xbe9c4abc	-0.30525768
93	0xbe914993	-0.28376445
94	0xbdc035d1	-0.09385265
95	0xbd60c6eb	-0.054877203
96	0x3ebad3ef	0.36489818
97	0x3e1caafa	0.15299597
98	0xbf452347	-0.77006954
99	0x3e819cf7	0.25315067
100	0xbf5b2215	-0.8559888
101	0x3f06d612	0.52670395
102	0xbd0d9c81	-0.034573082
103	0x3f49b4ab	0.787913
104	0x3f1a1a91	0.6019679
105	0x3e9b568f	0.30339476
106	0x3aa54341	0.0012608544
107	0xbe090c68	-0.13383639
108	0x3e1033a9	0.14082207
109	0xbf5e3956	-0.8680624
110	0xbf152c20	-0.58270454
111	0xbe869265	-0.26283565
112	0x3f39dcc6	0.726025
113	0xbeb8fc97	-0.3613021
114	0x3e82925d	0.2550229
115	0x3f2a38ce	0.6649293
116	0x3f3e55f1	0.74349886
117	0xbe9c0e6f	-0.30479762
118	0x3d97168f	0.073773496
119	0xbc8c185c	-0.01710146
120	0xbf77aeab	-0.967509
121	0xbef0522f	-0.469377
122	0xbdba11e6	-0.09085445
123	0xbf21fc72	-0.63275826
124	0x3e4d8729	0.20071091
125	0x3dddac24	0.10823849
126	0xbe782e1c	-0.2423634
127	0xbefe8b5b	-0.49715695
128	0x3d610617	0.05493745
129	0xbfb09718	-1.379611
130	0x3c018235	0.007904579
131	0xbf19d73a	-0.60094035
132	0x3e9348e0	0.28766537
133	0xbeead2dc	-0.45863998
134	0xbe775d52	-0.24156693
135	0x3d629aea	0.05532352
136	0xbed1cc57	-0.4097621
137	0xbdce5824	-0.10075405
138	0xbd924a62	-0.07143094
139	0x3de9169b	0.11381265
140	0x3d991f6e	0.07476698
141	0x3f1bf938	0.6092715
142	0x3ecb8a5f	0.39754006
143	0x3d40721b	0.04698382
144	0xbf16705b	-0.5876519
145	0xbe55c8a0	-0.20877314
146	0xbf12b37b	-0.57305115
147	0xbe78f924	-0.2431379
148	0xbfb3f78c	-1.405992
149	0xbecafa5f	-0.39644143
150	0xbd770dea	-0.060316004
151	0xbdbca5c1	-0.092113025
152	0x3f3d0917	0.73841995
153	0x3f5cf9b8	0.8631854
154	0xbf58a640	-0.8462868
155	0xbd1aba7b	-0.037775498
156	0xbe1788ce	-0.1479828
157	0x3e155846	0.14584455
158	0x3dc35631	0.09537924
159	0xbe39bf22	-0.18139318
160	0xbf085698	-0.5325713
161	0xbe34b3a2	-0.1764665
162	0x3df2c59e	0.11854099
163	0xbdc1336d	-0.09433637
164	0x3d756434	0.059910014
165	0xbefaa228	-0.4895184
166	0x3dc7598d	0.09733877
167	0xbee2baa3	-0.44283018
168	0xbedc0af6	-0.42977113
169	0xbd2583ce	-0.040408902
170	0xbf72650a	-0.94685423
171	0x3e83d816	0.25750798
172	0xbe5253ec	-0.20539826
173	0x3ce3a9dd	0.027790958
174	0xbf1481ca	-0.5801054
175	0xbf15ec00	-0.5856323
176	0x3e28de45	0.16491039
177	0x3f5c9f7f	0.8618087
178	0xbf3b7897	-0.7323088
179	0xbdb4936e	-0.088171825
180	0xbf733d6b	-0.9501559
181	0xbceb2d3b	-0.028708091
182	0x3f0caef9	0.5495449
183	0xbf8f3a66	-1.1189697
184	0xbe9464f6	-0.28983277
185	0xbf492afe	-0.78581226
186	0xbf46df1d	-0.77684194
187	0x3ee8e6ad	0.45488492
188	0xbe913d73	-0.28367195
189	0x3f30dc77	0.690864
190	0x3fb3602c	1.4013724
191	0xbf449976	-0.7679666
192	0x3d5e0bc2	0.054210432
193	0xbf9fd2ca	-1.2486203
194	0xbef9d518	-0.4879539
195	0x3fb048cf	1.377222
196	0xbd8f07ae	-0.06983887
197	0x3e4664bb	0.19374363
198	0xbed6d416	-0.41958684
199	0x3e8aeb8a	0.27132827
200	0x3f1248be	0.57142246
201	0xbe4aa12a	-0.19788042
202	0x3f292ad4	0.66080976
203	0xbe730540	-0.23732471
204	0x3eaf42bf	0.3423061
205	0xbe09c192	-0.13452747
206	0xbf8eaee4	-1.1147122
207	0xbd9f7038	-0.07785076
208	0x3f07ab8b	0.5299613
209	0xbece71b6	-0.4032113
210	0xbea11247	-0.31459257
211	0xbf7b5522	-0.9817678
212	0x3e03f2f3	0.12885647
213	0xbef40f9f	-0.47668168
214	0xbf8f0634	-1.1173768
215	0xbda80ab5	-0.08205167
216	0x3e8d6785	0.27618042
217	0xbef471e2	-0.47743136
218	0x3db3a642	0.087719455
219	0x3e963551	0.29337552
220	0x3ea75055	0.32678476
221	0xbf8733c0	-1.0562668
222	0xbf8a1184	-1.0786595
223	0x3f3fa9d8	0.74868536
224	0xbe8a6a09	-0.27034023
225	0x3d480fbb	0.048843127
226	0xbf6bafd8	-0.9206519
227	0xbea673dd	-0.32510272
228	0xbd8aab6b	-0.06770977
229	0x3f1a11b0	0.6018324
230	0xbe1a3e1d	-0.15062757
231	0x3e0bcc27	0.13652097
232	0xbddc286f	-0.107498996
233	0x3f1c1684	0.60971856
234	0x3d28f807	0.041252162
235	0xbf37f08a	-0.7185141
236	0xbe7ad68d	-0.24495907
237	0x3f8a5ac3	1.0808948
238	0x3e9f5985	0.31122985
239	0xbfb3858d	-1.4025131
240	0xbdc6c845	-0.09706167
241	0x3e1ccef0	0.15313315
242	0xbf46cc2d	-0.776553
243	0x3f8b089b	1.0862001
244	0xbf57e2dc	-0.84330535
245	0x3ec7bbde	0.3901052
246	0x3eeebabe	0.46626848
247	0x3ddbb8f5	0.10728637
248	0xbf5112b0	-0.8166914
249	0xbd713a5f	-0.058893558
250	0x3fc5c516	1.5450771
251	0x3ee52051	0.44751218
252	0x3f5b9ec1	0.85789114
253	0x3eccb754	0.39983618
254	0xbdee2cd1	-0.11629642
255	0x3e4a8971	0.19778992

bias_ih_l0 f4 [39]
0	0x3e66f421	0.22554065
1	0x3e5bc2e7	0.21461068
2	0xbd912f8c	-0.07089147
3	0x3e88d6b6	0.2672631
4	0x3e1d93c0	0.15388393
5	0x3ddeae0b	0.1087304
6	0x3f0cff3a	0.55076945
7	0x3eb7ea5c	0.3592099
8	0x3eb27a0a	0.34858733
9	0x3dc947ca	0.09828146
10	0x3cb0d62a	0.021586496
11	0xbe3344ba	-0.17506686
12	0x3e581d37	0.21104895
13	0xbfaeed81	-1.366623
14	0xbf95d1b0	-1.1704617
15	0xbfa76de6	-1.3080413
16	0xbfadc91d	-1.3577
17	0xbf81926a	-1.0122807
18	0xbf964f6b	-1.1742986
19	0xbe7b7cb0	-0.24559283
20	0x3e80b2a4	0.25136292
21	0x3ea8f86e	0.33002037
22	0x3e10dcf9	0.14146794
23	0x3e811af4	0.25215876
24	0xbf787e92	-0.9706813
25	0xbf384379	-0.71977955
26	0x3e001dfc	0.12511438
27	0xbe5bba90	-0.21457887
28	0x3e095d45	0.13414486
29	0x3cb74cf0	0.022375554
30	0x3d0096d0	0.031393826
31	0x3deebced	0.116571285
32	0xbd6622cc	-0.05618553
33	0xbd555a8a	-0.052088298
34	0xbd7d2f20	-0.06181252
35	0x3ab5ac20	0.0013860501
36	0x3d2afed9	0.041746948
37	0x3d6b0ccb	0.057385247
38	0x3d2f2cab	0.042767208

bias_hh_l0 f4 [39]
0	0x3e66f41b	0.22554056
1	0x3e5bc2e9	0.21461071
2	0xbd912f94	-0.07089153
3	0x3e88d6b6	0.2672631
4	0x3e1d93bb	0.15388386
5	0x3ddeae06	0.10873036
6	0x3f0cff3a	0.55076945
7	0x3eb7ea5d	0.35920992
8	0x3eb27a0b	0.34858736
9	0x3dc947c5	0.09828142
10	0x3cb0d616	0.02158646
11	0xbe3344b6	-0.1750668
12	0x3e581d34	0.2110489
13	0xbfaeed81	-1.366623
14	0xbf95d1b0	-1.1704617
15	0xbfa76de6	-1.3080413
16	0xbfadc91c	-1.3576999
17	0xbf819269	-1.0122806
18	0xbf964f6b	-1.1742986
19	0xbe7b7cb2	-0.24559286
20	0x3e80b2a3	0.2513629
21	0x3ea8f86f	0.3300204
22	0x3e10dcfb	0.14146797
23	0x3e811af0	0.25215864
24	0xbf787e94	-0.9706814
25	0xbf38437a	-0.7197796
26	0xbd4777cb	-0.048698228
27	0x3e109fa8	0.14123404
28	0x3e369b45	0.17832668
29	0x3e974ae0	0.29549313
30	0xbdeb681d	-0.114944674
31	0x3de867d4	0.11347929
32	0x3d8f4acd	0.06996689
33	0xbd5f5eb7	-0.054533686
34	0x3e5cd953	0.21567278
35	0x3de98a7f	0.11403369
36	0x3aaefe06	0.0013350851
37	0xbd5ee1bb	-0.054414492
38	0xbd3a7ee9	-0.045531187
