Models/GruAE_Encoder.pt (torch, 3999 bytes, 4 tensors)

weight_ih_l0 f4 [18, 13]
0	0x3f221a46	0.6332134
1	0xb8cfb527	-9.9042714e-05
2	0xbf60ad8f	-0.8776483
3	0xbebdc9e8	-0.37068105
4	0xbe2aedb0	-0.16692233
5	0x3e7ff152	0.249944
6	0xbf45042b	-0.76959485
7	0x3f8fa0d1	1.1220952
8	0x3ef898fe	0.48554224
9	0x3f54ac6c	0.83075595
10	0xbe8cb519	-0.27481917
11	0x3d43fd49	0.047848973
12	0x3f0cb81a	0.54968417
13	0x3d5f70ed	0.054551054
14	0xbe5c9e6f	-0.21544813
15	0x3ed84586	0.42240542
16	0x3f2c924a	0.6741072
17	0xbf73fa4d	-0.95303804
18	0x3ef41959	0.4767559
19	0x3ea745ba	0.32670385
20	0x3ee22f54	0.44176733
21	0x3ee6f700	0.4511032
22	0xbf2da8de	-0.67835796
23	0x3ed45fef	0.41479442
24	0x3d836547	0.064158015
25	0xbe08c961	-0.1335807
26	0xbe8e4dae	-0.2779364
27	0x3f066f0e	0.52513206
28	0xbebe50ab	-0.3717092
29	0x3dc74738	0.09730381
30	0xbeb5d4e3	-0.35513982
31	0xbe88d399	-0.26723936
32	0x3f4309aa	0.7618662
33	0x3ed3d1b4	0.41370928
34	0xbeae82a3	-0.34084043
35	0xbe4d6999	-0.20059814
36	0xbe787ad2	-0.24265602
37	0x3db5e1bf	0.08880948
38	0x3e1aa402	0.15101627
39	0x3f434c0b	0.7628791
40	0x3e83c649	0.25737217
41	0x3ded89ff	0.11598586
42	0x3deceaf5	0.11568252
43	0x3d5993c9	0.053119455
44	0xbde84cbb	-0.1134276
45	0x3e2ab6e9	0.16671337
46	0x3f80d622	1.0065348
47	0xbf563efc	-0.83689857
48	0xbf21a85f	-0.6314754
49	0xbe8a141b	-0.26968464
50	0xbf0ffdad	-0.56246454
51	0xbf42895e	-0.75990856
52	0x3f05382f	0.52038854
53	0x3e8d6353	0.2761484
54	0x3e2575b5	0.16158183
55	0x3f10ffc8	0.5664029
56	0x3f1fe2c7	0.6245541
57	0xbe6efdac	-0.23338956
58	0x3f06beb5	0.52634746
59	0xbf0b07c2	-0.5430871
60	0xbe883088	-0.26599526
61	0xbf6d56cf	-0.92710584
62	0xbe2f4ae2	-0.1711841
63	0x3e9bded4	0.30443442
64	0xbeeb10b6	-0.45911187
65	0x3ef48bc3	0.4776288
66	0x3f3b42d9	0.73148876
67	0x3e034b14	0.12821609
68	0xbf2ac932	-0.6671325
69	0xbeecb670	-0.4623294
70	0x3e9fe2d5	0.31227747
71	0xbd8d5942	-0.0690179
72	0x3e7274b4	0.23677331
73	0xbce6ed22	-0.028189246
74	0xbe0d37a7	-0.13790761
75	0x3c9a4b7f	0.018834827
76	0x3b2e8117	0.0026627237
77	0xbe6f01fc	-0.233406
78	0x3f3e0a6e	0.74234664
79	0xbf131dcd	-0.5746735
80	0x3eba0ad9	0.363364
81	0xbf8a0b75	-1.0784746
82	0x3f57435c	0.8408716
83	0xbf5791ad	-0.8420666
84	0xbf167e05	-0.5878604
85	0x3f1d7805	0.6151126
86	0x3ed6756a	0.41886455
87	0xbf021ca3	-0.50824946
88	0xbf3db6ec	-0.7410724
89	0x3e976af6	0.29573792
90	0x3de7385b	0.11290046
91	0xbda44163	-0.08020284
92	0xbe08eddb	-0.13371985
93	0xbe13052c	-0.14357442
94	0xbf09e7b6	-0.5386919
95	0x3e3e1b9e	0.18565223
96	0xbe89ea3e	-0.26936525
97	0xbf470255	-0.77737933
98	0xbf1b6304	-0.6069796
99	0x3e97ff60	0.29687023
100	0xbddda23c	-0.108219594
101	0xbf0536e5	-0.5203689
102	0x3c848448	0.016176358
103	0xbecec99e	-0.40388197
104	0x3edd12a1	0.43178275
105	0x3e17e293	0.14832525
106	0xbeb3be2e	-0.35106033
107	0xbe0cb77a	-0.13741866
108	0xbe8462ad	-0.25856534
109	0x3d3c4135	0.045960624
110	0xbec6e894	-0.38849318
111	0xbf3f9c40	-0.74847794
112	0xbe53ae00	-0.20671844
113	0x3f5e5bf0	0.86859035
114	0xbf623476	-0.883613
115	0x3c3a57fa	0.011373514
116	0xbf0a8eb9	-0.5412403
117	0xbe065445	-0.13118084
118	0xbf1ce226	-0.61282575
119	0x3e4e223a	0.20130244
120	0xbf79767c	-0.9744642
121	0xbe816f2a	-0.25280124
122	0x3ee41917	0.44550392
123	0xbed5f6a2	-0.41789728
124	0xbf040d5f	-0.515829
125	0x3ef9336e	0.4867205
126	0xbf80a954	-1.0051675
127	0xbf097c13	-0.5370495
128	0xbf92826f	-1.1446055
129	0x3e6dad23	0.23210578
130	0x3efab6b4	0.48967516
131	0xbf6a84de	-0.9160899
132	0xbe3ba040	-0.1832285
133	0xbfc4f533	-1.5387329
134	0xbf243f83	-0.6415941
135	0xbf55e051	-0.83545405
136	0xbf757216	-0.95877206
137	0x3e33808a	0.17529503
138	0x3ef34a57	0.47517654
139	0xbd0f8d09	-0.03504661
140	0xbf410675	-0.7540048
141	0xbf71511f	-0.94264406
142	0x3eb916f3	0.3615032
143	0x3e2553d0	0.16145253
144	0xbe73c046	-0.23803815
145	0xbf59d102	-0.85084546
146	0x3eb37cbc	0.35056102
147	0x3e9710da	0.29505044
148	0x3d992f33	0.07479706
149	0xbf4bfdc8	-0.79684114
150	0xba6e0e12	-0.0009081076
151	0x3d4102e3	0.047121894
152	0xbf365ee0	-0.7123852
153	0xbf8f848f	-1.1212329
154	0x3fa58ad3	1.2932991
155	0xbed18f51	-0.40929654
156	0xbefce292	-0.4939161
157	0xbe213b30	-0.15745234
158	0xbef220d4	-0.4729067
159	0x3e65861e	0.22414443
160	0x3db8b11d	0.09018157
161	0x3e7fea9c	0.2499184
162	0x3d2129d4	0.03934653
163	0x3e90dc14	0.28292906
164	0x3eaf597c	0.3424796
165	0x3d2620d0	0.040558636
166	0x3dc4ff16	0.09618966
167	0x3d86e6e2	0.06587006
168	0xbc18bf16	-0.009322902
169	0xbcd3ff03	-0.025878435
170	0xbe36197c	-0.17783159
171	0xbdba0b18	-0.09084147
172	0x3eba0f87	0.3633997
173	0xbf0c924f	-0.5491075
174	0x3e506a1e	0.2035298
175	0x3c84aa51	0.016194494
176	0xbdab5cb1	-0.08367289
177	0xbdcdf49b	-0.100564204
178	0xbe15db6c	-0.14634484
179	0xbd0c67fd	-0.03427886
180	0x3daa791d	0.08323882
181	0x3e029f2c	0.12756032
182	0x3f1409ed	0.57827646
183	0xbf6bbdd1	-0.9208651
184	0xbd94f9d0	-0.072742105
185	0x3df2dcb7	0.11858504
186	0x3ef5928e	0.47963375
187	0x3ebabb9d	0.36471263
188	0x3d874606	0.06605153
189	0xbdfa6f0a	-0.1222821
190	0x3d908ba5	0.07057885
191	0x3e8ff130	0.281137
192	0x3cc96b48	0.024587288
193	0x3d74f3cf	0.059802826
194	0x3e7723ea	0.24134794
195	0xbe822b8b	-0.25423846
196	0xbec93e53	-0.39305362
197	0xbe072eaf	-0.13201402
198	0xbe6011a9	-0.21881737
199	0xbe8870a4	-0.26648438
200	0xbf5a17f4	-0.851928
201	0x3d590622	0.052984364
202	0x3e88fda9	0.26756027
203	0xbf1e5401	-0.6184693
204	0xbf09c63b	-0.538181
205	0xbcb0d4c3	-0.021585828
206	0xbec0f410	-0.37686205
207	0x3d20cf1f	0.039260026
208	0xbec75f3e	-0.38939852
209	0xbe9f9b04	-0.31172955
210	0x3ee7b53e	0.45255464
211	0xbe608a7b	-0.21927826
212	0xbe17b3c8	-0.14814675
213	0x3e5e3c15	0.21702607
214	0xbd62e310	-0.055392325
215	0x3e2d5d25	0.16930063
216	0x3eb4a81a	0.352845
217	0x3f0cbe4e	0.5497788
218	0xbd112652	-0.035436936
219	0xbe1de29f	-0.1541848
220	0x3d19a02b	0.037506264
221	0xbe92004d	-0.28515854
222	0xbdcc7ac5	-0.09984354
223	0x3e1ea294	0.15491706
224	0x3f54f315	0.83183414
225	0x3e3e19db	0.1856455
226	0xbde72cac	-0.11287817
227	0x3dcf276b	0.1011494
228	0x3e5cc374	0.21558934
229	0x3e5185d4	0.20461208
230	0x3df28ab5	0.118428625
231	0x3d352044	0.044220224
232	0xbe5f4024	-0.21801811
233	0xbe2bfc2b	-0.16795413

weight_hh_l0 f4 [18, 6]
0	0xbed4c9e4	-0.4156028
1	0xbe4df5b3	-0.20113258
2	0x3ced81f3	0.028992629
3	0xbea53f6f	-0.32274958
4	0xbee94a70	-0.45564604
5	0xbf4bee29	-0.7966028
6	0xbe453708	-0.19259274
7	0x3f0158f9	0.50526386
8	0xbf04decb	-0.51902455
9	0x3f3f16b5	0.74644023
10	0x3f4a65ba	0.7906147
11	0x3ee0aaef	0.43880412
12	0xbd3eb54b	-0.046559613
13	0x3edc74ff	0.4305801
14	0x3f4b28bc	0.7935903
15	0x3eec3678	0.46135306
16	0xbe87c7f1	-0.2651973
17	0xbd58f6d0	-0.052969754
18	0xbe430ddb	-0.19048254
19	0x3ef0fc04	0.47067273
20	0x3e48ffd4	0.1962884
21	0xbd85cf55	-0.06533686
22	0x3e047847	0.12936507
23	0x3ddcd754	0.10783258
24	0xbf1085f7	-0.56454414
25	0xbdef0735	-0.116712965
26	0x3e0f0109	0.13965239
27	0x3e29507c	0.16534609
28	0x3ebf252e	0.37333053
29	0x3f51e0eb	0.8198382
30	0xbe86dc35	-0.2633988
31	0xbec63beb	-0.3871759
32	0xbf1e7e86	-0.6191181
33	0x3da3c806	0.07997136
34	0x3d7ece01	0.06220818
35	0x3e82d6e2	0.25554568
36	0xbf67570f	-0.90367216
37	0xbef5ac80	-0.4798317
38	0x3f69fde0	0.9140301
39	0x3e4f97b3	0.20272712
40	0x3f84aae9	1.0364658
41	0x3fa49512	1.2857993
42	0xbeb0b87a	-0.34515744
43	0xbf5c64e6	-0.8609146
44	0x3da27404	0.079322845
45	0x3e12f9f8	0.14353168
46	0x3f2802cd	0.65629274
47	0xbeb0e59b	-0.34550175
48	0xbf05f5c1	-0.52328116
49	0xbedc4271	-0.4301944
50	0x3ecf6c6d	0.4051241
51	0x3ea144fc	0.31497943
52	0x3f758ee7	0.95921177
53	0x3f098aa6	0.53727186
54	0xbf2eb871	-0.68250185
55	0xbc0508c9	-0.00811977
56	0x3f4a9daa	0.79146826
57	0x3edbc9b3	0.42927322
58	0x3fa059a1	1.2527353
59	0x3f4a9c3c	0.79144645
60	0x3ea7c85a	0.32770044
61	0x3c9bf9e8	0.019040063
62	0x3f55c5c3	0.83504885
63	0x3f3c332e	0.73515594
64	0xbe3e7d62	-0.18602517
65	0x3ef7908c	0.48352468
66	0xbf2e592a	-0.68104804
67	0xbf443ec3	-0.76658267
68	0x3db229e6	0.08699398
69	0x3edaeccf	0.42758796
70	0x3f845ea4	1.0341382
71	0x3cf632ef	0.030053584
72	0xbcf60163	-0.030029958
73	0xbef50c0c	-0.47860754
74	0xbd8f40c3	-0.06994774
75	0xbe965a61	-0.2936583
76	0x3efd756f	0.49503657
77	0x3e15f5ca	0.14644542
78	0xbef4a4bb	-0.4778193
79	0x3e2e8d63	0.17046122
80	0x3d06f62d	0.032949615
81	0xbe1a3773	-0.15060215
82	0x3e4fbdc1	0.20287229
83	0x3d653f7b	0.055968743
84	0xbe246eb8	-0.16057861
85	0xbdb94c3e	-0.09047745
86	0xbea91d8d	-0.33030358
87	0x3efc9404	0.49331677
88	0x3dc2f395	0.09519116
89	0x3cce8540	0.025210023
90	0x3ed45453	0.41470584
91	0xbe0b3f8e	-0.13598463
92	0xbf037b96	-0.5136045
93	0xbe899265	-0.26869503
94	0x3e98bb55	0.29830423
95	0x3e4b820d	0.19873829
96	0xbe2c3d00	-0.16820145
97	0xbb041762	-0.0020155539
98	0xbe3baaa7	-0.18326817
99	0x3f3039e2	0.6883832
100	0xbed1c9fc	-0.40974414
101	0xbe7abd46	-0.24486265
102	0x3c5b0626	0.013368165
103	0xbe3c7377	-0.18403421
104	0xbe13e203	-0.14441685
105	0xbc80ab9b	-0.015706828
106	0x3ec3d834	0.38250887
107	0xbda81ee8	-0.0820902

bias_ih_l0 f4 [18]
0	0xbe653723	-0.22384314
1	0xbe5ea7f6	-0.2174376
2	0x3eb03ec5	0.3442289
3	0x3def37e2	0.11680581
4	0xbeaf3c8e	-0.34225887
5	0x3e05b232	0.13056257
6	0xbf9d047d	-1.2266995
7	0xbf900363	-1.1251034
8	0xbfb1824f	-1.3867892
9	0xbf9328df	-1.1496848
10	0xbfaaddcf	-1.3348941
11	0xbfaae1db	-1.3350176
12	0x389a32f8	7.352786e-05
13	0xbe587769	-0.21139301
14	0x3d9ee33e	0.07758187
15	0x3e47ebed	0.19523592
16	0xbd674815	-0.056465227
17	0x3cffbdd0	0.03121844

bias_hh_l0 f4 [18]
0	0xbe653723	-0.22384314
1	0xbe5ea7f5	-0.21743758
2	0x3eb03ec3	0.34422883
3	0x3def37ec	0.11680588
4	0xbeaf3c8d	-0.34225884
5	0x3e05b237	0.13056265
6	0xbf9d047d	-1.2266995
7	0xbf900363	-1.1251034
8	0xbfb18250	-1.3867893
9	0xbf9328df	-1.1496848
10	0xbfaaddce	-1.334894
11	0xbfaae1dc	-1.3350177
12	0x3e7b906d	0.24566813
13	0x3eb52554	0.35380042
14	0xbecc3f58	-0.39892077
15	0x3c596729	0.013269224
16	0xbee77fd3	-0.4521471
17	0xbe9b9b2c	-0.30391824
